…
16, grad_fn=<NativeLayerNormBackward0>),\n 'pooler_output': tensor([[ 0.3347, -0.0175,  1.0537,  ...,  0.6938, -0.4158, -1.3076],\n        [-0.9775,  0.2269,  2.0020,  ...,  0.0747, -0.2448, -1.8760]],\n       device='cuda:0', dtype=torch.float16, grad_fn=<IndexBackward0>)}\n\n\nWe can check that padding does not affect encoder result at all:\n\ntorch.equal(outputs.last_hidden_state, outputs1.last_hidden_state)\n\nTrue\n\n\nNow we can take a closer look at the text encoding model:\n\npipe.text_encoder.text_model\n\nCLIPTextTransformer(\n  (embeddings): CLIPTextEmbeddings(\n    (token_embedding): Embedding(49408, 1024)\n    (position_embedding): Embedding(77, 1024)\n  )\n  (encoder): CLIPEncoder(\n    (layers): ModuleList(\n      (0): CLIPEncoderLayer(\n        (self_attn): CLIPAttention(\n          (k_proj): Linear(in_features=1024, out_features=1024, bias=True)\n          (v_proj): Linear(in_features=1024, out_features=1024, bias=True)\n          (q_proj): Linear(in_features=1024, out_features=1024, bias=True)\n          (out_proj): Linear(in_features=1024, out_features=1024, bias=True)\n        )\n        (layer_norm1): LayerNorm((1024,), eps=1e-05, elementwise_affine=True)\n        (mlp): CLIPMLP(\n          (activation_fn): GELUActivation()\n          (fc1): Linear(in_features=1024, out_features=4096, bias=True)\n          (fc2): Linear(in_features=4096, out_features=1024, bias=True)\n        )\n        (layer_norm2): LayerNorm((1024,), eps=1e-05, elementwise_affine=True)\n      )\n      (1): CLIPEncoderLayer(\n        (self_attn): CLIPAttention(\n          (k_proj): Linear(in_features=1024, out_features=1024, bias=True)\n          (v_proj): Linear(in_features=1024, out_features=1024, bias=True)\n          (q_proj): Linear(in_features=1024, out_features=1024, bias=True)\n          (out_proj): Linear(in_features=1024, out_features=1024, bias=True)\n        )\n        (layer_norm1): LayerNorm((1024,), eps=1e-05, elementwise_affine=True)\n        (mlp): CLIPMLP(\n          (activation_fn): GELUActivation()\n          (fc1): Linear(in_features=1024, out_features=4096, bias=True)\n          (fc2): Linear(in_features=4096, out_features=1024, bias=True)\n        )\n        (layer_norm2): LayerNorm((1024,), eps=1e-05, elementwise_affine=True)\n      )\n      (2): CLIPEncoderLayer(\n        (self_attn): CLIPAttention(\n          (k_proj): Linear(in_features=1024, out_features=1024, bias=True)\n          (v_proj): Linear(in_features=1024, out_features=1024, bias=True)\n          (q_proj): Linear(in_features=1024, out_features=1024, bias=True)\n          (out_proj): Linear(in_features=1024, out_features=1024, bias=True)\n        )\n        (layer_norm1): LayerNorm((1024,), eps=1e-05, elementwise_affine=True)\n        (mlp): CLIPMLP(\n          (activation_fn): GELUActivation()\n          (fc1): Linear(in_features=1024, out_features=4096, bias=True)\n          (fc2): Linear(in_features=4096, out_features=1024, bias=True)\n        )\n        (layer_norm2): LayerNorm((1024,), eps=1e-05, elementwise_affine=True)\n      )\n      (3): CLIPEncoderLayer(\n        (self_attn): CLIPAttention(\n          (k_proj): Linear(in_features=1024, out_features=1024, bias=True)\n          (v_proj): Linear(in_features=1024, out_features=1024, bias=True)\n          (q_proj): Linear(in_features=1024, out_features=1024, bias=True)\n          (out_proj): Linear(in_features=1024, out_features=1024, bias=True)\n        )\n        (layer_norm1): LayerNorm((1024,), eps=1e-05, elementwise_affine=True)\n        (mlp): CLIPMLP(\n          (activation_fn): GELUActivation()\n          (fc1): Linear(in_features=1024, out_features=4096, bias=True)\n          (fc2): Linear(in_features=4096, out_features=1024, bias=True)\n        )\n        (layer_norm2): LayerNorm((1024,), eps=1e-05, elementwise_affine=True)\n      )\n      (4): CLIPEncoderLayer(\n        (self_attn): CLIPAttention(\n          (k_proj): Linear(in_features=1024, out_features=1024, bias=True)\n          (v_proj): Linear(in_features=1024, out_features=1024, bias=True)\n          (q_proj): Linear(in_features=1024, out_features=1024, bias=True)\n          (out_proj): Linear(in_features=1024, out_features=1024, bias=True)\n        )\n        (layer_norm1): LayerNorm((1024,), eps=1e-05, elementwise_affine=True)\n        (mlp): CLIPMLP(\n          (activation_fn): GELUActivation()\n          (fc1): Linear(in_features=1024, out_features=4096, bias=True)\n          (fc2): Linear(in_features=4096, out_features=1024, bias=True)\n        )\n        (layer_norm2): LayerNorm((1024,), eps=1e-05, elementwise_affine=True)\n      )\n      (5): CLIPEncoderLayer(\n        (self_attn): CLIPAttention(\n          (k_proj): Linear(in_features=1024, out_features=1024, bias=True)\n          (v_proj): Linear(in_features=1024, out_features=1024, bias=True)\n          (q_proj): Linear(in_features=1024, out_features=1024, bias=True)\n          (out_proj): Linear(in_features=1024, out_features=1024, bias=True)\n        )\n        (layer_norm1): LayerNorm((1024,), eps=1e-05, elementwise_affine=True)\n        (mlp): CLIPMLP(\n          (activation_fn): GELUActivation()\n          (fc1): Linear(in_features=1024, out_features=4096, bias=True)\n          (fc2): Linear(in_features=4096, out_features=1024, bias=True)\n        )\n        (layer_norm2): LayerNorm((1024,), eps=1e-05, elementwise_affine=True)\n      )\n      (6): CLIPEncoderLayer(\n        (self_attn): CLIPAttention(\n          (k_proj): Linear(in_features=1024, out_features=1024, bias=True)\n          (v_proj): Linear(in_features=1024, out_features=1024, bias=True)\n          (q_proj): Linear(in_features=1024, out_features=1024, bias=True)\n          (out_proj): Linear(in_features=1024, out_features=1024, bias=True)\n        )\n        (layer_norm1): LayerNorm((1024,), eps=1e-05, elementwise_affine=True)\n        (mlp): CLIPMLP(\n          (activation_fn): GELUActivation()\n          (fc1): Linear(in_features=1024, out_features=4096, bias=True)\n          (fc2): Linear(in_features=4096, out_features=1024, bias=True)\n        )\n        (layer_norm2): LayerNorm((1024,), eps=1e-05, elementwise_affine=True)\n      )\n      (7): CLIPEncoderLayer(\n        (self_attn): CLIPAttention(\n          (k_proj): Linear(in_features=1024, out_features=1024, bias=True)\n          (v_proj): Linear(in_features=1024, out_features=1024, bias=True)\n          (q_proj): Linear(in_features=1024, out_features=1024, bias=True)\n          (out_proj): Linear(in_features=1024, out_features=1024, bias=True)\n        )\n        (layer_norm1): LayerNorm((1024,), eps=1e-05, elementwise_affine=True)\n        (mlp): CLIPMLP(\n          (activation_fn): GELUActivation()\n          (fc1): Linear(in_features=1024, out_features=4096, bias=True)\n          (fc2): Linear(in_features=4096, out_features=1024, bias=True)\n        )\n        (layer_norm2): LayerNorm((1024,), eps=1e-05, elementwise_affine=True)\n      )\n      (8): CLIPEncoderLayer(\n        (self_attn): CLIPAttention(\n          (k_proj): Linear(in_features=1024, out_features=1024, bias=True)\n          (v_proj): Linear(in_features=1024, out_features=1024, bias=True)\n          (q_proj): Linear(in_features=1024, out_features=1024, bias=True)\n          (out_proj): Linear(in_features=1024, out_features=1024, bias=True)\n        )\n        (layer_norm1): LayerNorm((1024,), eps=1e-05, elementwise_affine=True)\n        (mlp): CLIPMLP(\n          (activation_fn): GELUActivation()\n          (fc1): Linear(in_features=1024, out_features=4096, bias=True)\n          (fc2): Linear(in_features=4096, out_features=1024, bias=True)\n        )\n        (layer_norm2): LayerNorm((1024,), eps=1e-05, elementwise_affine=True)\n      )\n      (9): CLIPEncoderLayer(\n        (self_attn): CLIPAttention(\n          (k_proj): Linear(in_features=1024, out_features=1024, bias=True)\n          (v_proj): Linear(in_features=1024, out_features=1024, bias=True)\n          (q_proj): Linear(in_features=1024, out_features=1024, bias=True)\n          (out_proj): Linear(in_features=1024, out_features=1024, bias=True)\n        )\n        (layer_norm1): LayerNorm((1024,), eps=1e-05, elementwise_affine=True)\n        (mlp): CLIPMLP(\n          (activation_fn): GELUActivation()\n          (fc1): Linear(in_features=1024, out_features=4096, bias=True)\n          (fc2): Linear(in_features=4096, out_features=1024, bias=True)\n        )\n        (layer_norm2): LayerNorm((1024,), eps=1e-05, elementwise_affine=True)\n      )\n      (10): CLIPEncoderLayer(\n        (self_attn): CLIPAttention(\n          (k_proj): Linear(in_features=1024, out_features=1024, bias=True)\n          (v_proj): Linear(in_features=1024, out_features=1024, bias=True)\n          (q_proj): Linear(in_features=1024, out_features=1024, bias=True)\n          (out_proj): Linear(in_features=1024, out_features=1024, bias=True)\n        )\n        (layer_norm1): LayerNorm((1024,), eps=1e-05, elementwise_affine=True)\n        (mlp): CLIPMLP(\n          (activation_fn): GELUActivation()\n          (fc1): Linear(in_features=1024, out_features=4096, bias=True)\n          (fc2): Linear(in_features=4096, out_features=1024, bias=True)\n        )\n        (layer_norm2): LayerNorm((1024,), eps=1e-05, elementwise_affine=True)\n      )\n      (11): CLIPEncoderLayer(\n        (self_attn): CLIPAttention(\n          (k_proj): Linear(in_features=1024, out_features=1024, bias=True)\n          (v_proj): Linear(in_features=1024, out_features=1024, bias=True)\n          (q_proj): Linear(in_features=1024, out_features=1024, bias=True)\n          (out_proj): Linear(in_features=1024, out_features=1024, bias=True)\n        )\n        (layer_norm1): LayerNorm((1024,), eps=1e-05, elementwise_affine=True)\n        (mlp): CLIPMLP(\n          (activation_fn): GELUActivation()\n          (fc1): Linear(in_features=1024, out_features=4096, bias=True)\n          (fc2): Linear(in_features=4096, out_features=1024, bias=True)\n        )\n        (layer_norm2): LayerNorm((1024,), eps=1e-05, elementwise_affine=True)\n      )\n      (12): CLIPEncoderLayer(\n        (self_attn): CLIPAttention(\n          (k_proj): Linear(in_features=1024, out_features=1024, bias=True)\n          (v_proj): Linear(in_features=1024, out_features=1024, bias=True)\n          (q_proj): Linear(in_features=1024, out_features=1024, bias=True)\n          (out_proj): Linear(in_features=1024, out_features=1024, bias=True)\n        )\n        (layer_norm1): LayerNorm((1024,), eps=1e-05, elementwise_affine=True)\n        (mlp): CLIPMLP(\n          (activation_fn): GELUActivation()\n          (fc1): Linear(in_features=1024, out_features=4096, bias=True)\n          (fc2): Linear(in_features=4096, out_features=1024, bias=True)\n        )\n        (layer_norm2): LayerNorm((1024,), eps=1e-05, elementwise_affine=True)\n      )\n      (13): CLIPEncoderLayer(\n        (self_attn): CLIPAttention(\n          (k_proj): Linear(in_features=1024, out_features=1024, bias=True)\n          (v_proj): Linear(in_features=1024, out_features=1024, bias=True)\n          (q_proj): Linear(in_features=1024, out_features=1024, bias=True)\n          (out_proj): Linear(in_features=1024, out_features=1024, bias=True)\n        )\n        (layer_norm1): LayerNorm((1024,), eps=1e-05, elementwise_affine=True)\n        (mlp): CLIPMLP(\n          (activation_fn): GELUActivation()\n          (fc1): Linear(in_features=1024, out_features=4096, bias=True)\n          (fc2): Linear(in_features=4096, out_features=1024, bias=True)\n        )\n        (layer_norm2): LayerNorm((1024,), eps=1e-05, elementwise_affine=True)\n      )\n      (14): CLIPEncoderLayer(\n        (self_attn): CLIPAttention(\n          (k_proj): Linear(in_features=1024, out_features=1024, bias=True)\n          (v_proj): Linear(in_features=1024, out_features=1024, bias=True)\n          (q_proj): Linear(in_features=1024, out_features=1024, bias=True)\n          (out_proj): Linear(in_features=1024, out_features=1024, bias=True)\n        )\n        (layer_norm1): LayerNorm((1024,), eps=1e-05, elementwise_affine=True)\n        (mlp): CLIPMLP(\n          (activation_fn): GELUActivation()\n          (fc1): Linear(in_features=1024, out_features=4096, bias=True)\n          (fc2): Linear(in_features=4096, out_features=1024, bias=True)\n        )\n        (layer_norm2): LayerNorm((1024,), eps=1e-05, elementwise_affine=True)\n      )\n      (15): CLIPEncoderLayer(\n        (self_attn): CLIPAttention(\n          (k_proj): Linear(in_features=1024, out_features=1024, bias=True)\n          (v_proj): Linear(in_features=1024, out_features=1024, bias=True)\n          (q_proj): Linear(in_features=1024, out_features=1024, bias=True)\n          (out_proj): Linear(in_features=1024, out_features=1024, bias=True)\n        )\n        (layer_norm1): LayerNorm((1024,), eps=1e-05, elementwise_affine=True)\n        (mlp): CLIPMLP(\n          (activation_fn): GELUActivation()\n          (fc1): Linear(in_features=1024, out_features=4096, bias=True)\n          (fc2): Linear(in_features=4096, out_features=1024, bias=True)\n        )\n        (layer_norm2): LayerNorm((1024,), eps=1e-05, elementwise_affine=True)\n      )\n      (16): CLIPEncoderLayer(\n        (self_attn): CLIPAttention(\n          (k_proj): Linear(in_features=1024, out_features=1024, bias=True)\n          (v_proj): Linear(in_features=1024, out_features=1024, bias=True)\n          (q_proj): Linear(in_features=1024, out_features=1024, bias=True)\n          (out_proj): Linear(in_features=1024, out_features=1024, bias=True)\n        )\n        (layer_norm1): LayerNorm((1024,), eps=1e-05, elementwise_affine=True)\n        (mlp): CLIPMLP(\n          (activation_fn): GELUActivation()\n          (fc1): Linear(in_features=1024, out_features=4096, bias=True)\n          (fc2): Linear(in_features=4096, out_features=1024, bias=True)\n        )\n        (layer_norm2): LayerNorm((1024,), eps=1e-05, elementwise_affine=True)\n      )\n      (17): CLIPEncoderLayer(\n        (self_attn): CLIPAttention(\n          (k_proj): Linear(in_features=1024, out_features=1024, bias=True)\n          (v_proj): Linear(in_features=1024, out_features=1024, bias=True)\n          (q_proj): Linear(in_features=1024, out_features=1024, bias=True)\n          (out_proj): Linear(in_features=1024, out_features=1024, bias=True)\n        )\n        (layer_norm1): LayerNorm((1024,), eps=1e-05, elementwise_affine=True)\n        (mlp): CLIPMLP(\n          (activation_fn): GELUActivation()\n          (fc1): Linear(in_features=1024, out_features=4096, bias=True)\n          (fc2): Linear(in_features=4096, out_features=1024, bias=True)\n        )\n        (layer_norm2): LayerNorm((1024,), eps=1e-05, elementwise_affine=True)\n      )\n      (18): CLIPEncoderLayer(\n        (self_attn): CLIPAttention(\n          (k_proj): Linear(in_features=1024, out_features=1024, bias=True)\n          (v_proj): Linear(in_features=1024, out_features=1024, bias=True)\n          (q_proj): Linear(in_features=1024, out_features=1024, bias=True)\n          (out_proj): Linear(in_features=1024, out_features=1024, bias=True)\n        )\n        (layer_norm1): LayerNorm((1024,), eps=1e-05, elementwise_affine=True)\n        (mlp): CLIPMLP(\n          (activation_fn): GELUActivation()\n          (fc1): Linear(in_features=1024, out_features=4096, bias=True)\n          (fc2): Linear(in_features=4096, out_features=1024, bias=True)\n        )\n        (layer_norm2): LayerNorm((1024,), eps=1e-05, elementwise_affine=True)\n      )\n      (19): CLIPEncoderLayer(\n        (self_attn): CLIPAttention(\n          (k_proj): Linear(in_features=1024, out_features=1024, bias=True)\n          (v_proj): Linear(in_features=1024, out_features=1024, bias=True)\n          (q_proj): Linear(in_features=1024, out_features=1024, bias=True)\n          (out_proj): Linear(in_features=1024, out_features=1024, bias=True)\n        )\n        (layer_norm1): LayerNorm((1024,), eps=1e-05, elementwise_affine=True)\n        (mlp): CLIPMLP(\n          (activation_fn): GELUActivation()\n          (fc1): Linear(in_features=1024, out_features=4096, bias=True)\n          (fc2): Linear(in_features=4096, out_features=1024, bias=True)\n        )\n        (layer_norm2): LayerNorm((1024,), eps=1e-05, elementwise_affine=True)\n      )\n      (20): CLIPEncoderLayer(\n        (self_attn): CLIPAttention(\n          (k_proj): Linear(in_features=1024, out_features=1024, bias=True)\n          (v_proj): Linear(in_features=1024, out_features=1024, bias=True)\n          (q_proj): Linear(in_features=1024, out_features=1024, bias=True)\n          (out_proj): Linear(in_features=1024, out_features=1024, bias=True)\n        )\n        (layer_norm1): LayerNorm((1024,), eps=1e-05, elementwise_affine=True)\n        (mlp): CLIPMLP(\n          (activation_fn): GELUActivation()\n          (fc1): Linear(in_features=1024, out_features=4096, bias=True)\n          (fc2): Linear(in_features=4096, out_features=1024, bias=True)\n        )\n        (layer_norm2): LayerNorm((1024,), eps=1e-05, elementwise_affine=True)\n      )\n      (21): CLIPEncoderLayer(\n        (self_attn): CLIPAttention(\n          (k_proj): Linear(in_features=1024, out_features=1024, bias=True)\n          (v_proj): Linear(in_features=1024, out_features=1024, bias=True)\n          (q_proj): Linear(in_features=1024, out_features=1024, bias=True)\n          (out_proj): Linear(in_features=1024, out_features=1024, bias=True)\n        )\n        (layer_norm1): LayerNorm((1024,), eps=1e-05, elementwise_affine=True)\n        (mlp): CLIPMLP(\n          (activation_fn): GELUActivation()\n          (fc1): Linear(in_features=1024, out_features=4096, bias=True)\n          (fc2): Linear(in_features=4096, out_features=1024, bias=True)\n        )\n        (layer_norm2): LayerNorm((1024,), eps=1e-05, elementwise_affine=True)\n      )\n      (22): CLIPEncoderLayer(\n        (self_attn): CLIPAttention(\n          (k_proj): Linear(in_features=1024, out_features=1024, bias=True)\n          (v_proj): Linear(in_features=1024, out_features=1024, bias=True)\n          (q_proj): Linear(in_features=1024, out_features=1024, bias=True)\n          (out_proj): Linear(in_features=1024, out_features=1024, bias=True)\n        )\n        (layer_norm1): LayerNorm((1024,), eps=1e-05, elementwise_affine=True)\n        (mlp): CLIPMLP(\n          (activation_fn): GELUActivation()\n          (fc1): Linear(in_features=1024, out_features=4096, bias=True)\n          (fc2): Linear(in_features=4096, out_features=1024, bias=True)\n        )\n        (layer_norm2): LayerNorm((1024,), eps=1e-05, elementwise_affine=True)\n      )\n    )\n  )\n  (final_layer_norm): LayerNorm((1024,), eps=1e-05, elementwise_affine=True)\n)\n\n\nThe text model is a CLIPTextTransformer, described in detail in the CLIP paper.\n\nfrom transformers.models.clip.modeling_clip import CLIPTextTransformer\n\n\nCLIPTextTransformer??"
  },
  {
    "objectID": "posts/sd/stable-diffusion-1.html#setup",
    "href": "posts/sd/stable-diffusion-1.html#setup",
    "title": "Stable Diffusion from Begginer to Master (1) Pipelines and Prompts",
…
z)\nprint('dec:', dec.shape)\nimage = (dec.detach() / 2 + 0.5).clamp(0, 1)\nimage = image.cpu().permute(0, 2, 3, 1).float().numpy()\nimage = numpy_to_pil(image)[0]\ndisplay(image)\n\nlatents: torch.Size([1, 4, 60, 64])\nz: torch.Size([1, 4, 60, 64])\ndec: torch.Size([1, 3, 480, 512])\n\n\n\n\n\nWe won’t dive deeper into the Encoder and Decoder (both are UNet, which is a special kind of Convolutional network, characterized by first scaling down and then scaling up feature maps). But you can defintely have a look at the source code to dig more details.\n\npipe.vae.encoder\n\nEncoder(\n  (conv_in): Conv2d(3, 128, kernel_size=(3, 3), stride=(1, 1), padding=(1, 1))\n  (down_blocks): ModuleList(\n    (0): DownEncoderBlock2D(\n      (resnets): ModuleList(\n        (0): ResnetBlock2D(\n          (norm1): GroupNorm(32, 128, eps=1e-06, affine=True)\n          (conv1): Conv2d(128, 128, kernel_size=(3, 3), stride=(1, 1), padding=(1, 1))\n          (norm2): GroupNorm(32, 128, eps=1e-06, affine=True)\n          (dropout): Dropout(p=0.0, inplace=False)\n          (conv2): Conv2d(128, 128, kernel_size=(3, 3), stride=(1, 1), padding=(1, 1))\n          (nonlinearity): SiLU()\n        )\n        (1): ResnetBlock2D(\n          (norm1): GroupNorm(32, 128, eps=1e-06, affine=True)\n          (conv1): Conv2d(128, 128, kernel_size=(3, 3), stride=(1, 1), padding=(1, 1))\n          (norm2): GroupNorm(32, 128, eps=1e-06, affine=True)\n          (dropout): Dropout(p=0.0, inplace=False)\n          (conv2): Conv2d(128, 128, kernel_size=(3, 3), stride=(1, 1), padding=(1, 1))\n          (nonlinearity): SiLU()\n        )\n      )\n      (downsamplers): ModuleList(\n        (0): Downsample2D(\n          (conv): Conv2d(128, 128, kernel_size=(3, 3), stride=(2, 2))\n        )\n      )\n    )\n    (1): DownEncoderBlock2D(\n      (resnets): ModuleList(\n        (0): ResnetBlock2D(\n          (norm1): GroupNorm(32, 128, eps=1e-06, affine=True)\n          (conv1): Conv2d(128, 256, kernel_size=(3, 3), stride=(1, 1), padding=(1, 1))\n          (norm2): GroupNorm(32, 256, eps=1e-06, affine=True)\n          (dropout): Dropout(p=0.0, inplace=False)\n          (conv2): Conv2d(256, 256, kernel_size=(3, 3), stride=(1, 1), padding=(1, 1))\n          (nonlinearity): SiLU()\n          (conv_shortcut): Conv2d(128, 256, kernel_size=(1, 1), stride=(1, 1))\n        )\n        (1): ResnetBlock2D(\n          (norm1): GroupNorm(32, 256, eps=1e-06, affine=True)\n          (conv1): Conv2d(256, 256, kernel_size=(3, 3), stride=(1, 1), padding=(1, 1))\n          (norm2): GroupNorm(32, 256, eps=1e-06, affine=True)\n          (dropout): Dropout(p=0.0, inplace=False)\n          (conv2): Conv2d(256, 256, kernel_size=(3, 3), stride=(1, 1), padding=(1, 1))\n          (nonlinearity): SiLU()\n        )\n      )\n      (downsamplers): ModuleList(\n        (0): Downsample2D(\n          (conv): Conv2d(256, 256, kernel_size=(3, 3), stride=(2, 2))\n        )\n      )\n    )\n    (2): DownEncoderBlock2D(\n      (resnets): ModuleList(\n        (0): ResnetBlock2D(\n          (norm1): GroupNorm(32, 256, eps=1e-06, affine=True)\n          (conv1): Conv2d(256, 512, kernel_size=(3, 3), stride=(1, 1), padding=(1, 1))\n          (norm2): GroupNorm(32, 512, eps=1e-06, affine=True)\n          (dropout): Dropout(p=0.0, inplace=False)\n          (conv2): Conv2d(512, 512, kernel_size=(3, 3), stride=(1, 1), padding=(1, 1))\n          (nonlinearity): SiLU()\n          (conv_shortcut): Conv2d(256, 512, kernel_size=(1, 1), stride=(1, 1))\n        )\n        (1): ResnetBlock2D(\n          (norm1): GroupNorm(32, 512, eps=1e-06, affine=True)\n          (conv1): Conv2d(512, 512, kernel_size=(3, 3), stride=(1, 1), padding=(1, 1))\n          (norm2): GroupNorm(32, 512, eps=1e-06, affine=True)\n          (dropout): Dropout(p=0.0, inplace=False)\n          (conv2): Conv2d(512, 512, kernel_size=(3, 3), stride=(1, 1), padding=(1, 1))\n          (nonlinearity): SiLU()\n        )\n      )\n      (downsamplers): ModuleList(\n        (0): Downsample2D(\n          (conv): Conv2d(512, 512, kernel_size=(3, 3), stride=(2, 2))\n        )\n      )\n    )\n    (3): DownEncoderBlock2D(\n      (resnets): ModuleList(\n        (0): ResnetBlock2D(\n          (norm1): GroupNorm(32, 512, eps=1e-06, affine=True)\n          (conv1): Conv2d(512, 512, kernel_size=(3, 3), stride=(1, 1), padding=(1, 1))\n          (norm2): GroupNorm(32, 512, eps=1e-06, affine=True)\n          (dropout): Dropout(p=0.0, inplace=False)\n          (conv2): Conv2d(512, 512, kernel_size=(3, 3), stride=(1, 1), padding=(1, 1))\n          (nonlinearity): SiLU()\n        )\n        (1): ResnetBlock2D(\n          (norm1): GroupNorm(32, 512, eps=1e-06, affine=True)\n          (conv1): Conv2d(512, 512, kernel_size=(3, 3), stride=(1, 1), padding=(1, 1))\n          (norm2): GroupNorm(32, 512, eps=1e-06, affine=True)\n          (dropout): Dropout(p=0.0, inplace=False)\n          (conv2): Conv2d(512, 512, kernel_size=(3, 3), stride=(1, 1), padding=(1, 1))\n          (nonlinearity): SiLU()\n        )\n      )\n    )\n  )\n  (mid_block): UNetMidBlock2D(\n    (attentions): ModuleList(\n      (0): AttentionBlock(\n        (group_norm): GroupNorm(32, 512, eps=1e-06, affine=True)\n        (query): Linear(in_features=512, out_features=512, bias=True)\n        (key): Linear(in_features=512, out_features=512, bias=True)\n        (value): Linear(in_features=512, out_features=512, bias=True)\n        (proj_attn): Linear(in_features=512, out_features=512, bias=True)\n      )\n    )\n    (resnets): ModuleList(\n      (0): ResnetBlock2D(\n        (norm1): GroupNorm(32, 512, eps=1e-06, affine=True)\n        (conv1): Conv2d(512, 512, kernel_size=(3, 3), stride=(1, 1), padding=(1, 1))\n        (norm2): GroupNorm(32, 512, eps=1e-06, affine=True)\n        (dropout): Dropout(p=0.0, inplace=False)\n        (conv2): Conv2d(512, 512, kernel_size=(3, 3), stride=(1, 1), padding=(1, 1))\n        (nonlinearity): SiLU()\n      )\n      (1): ResnetBlock2D(\n        (norm1): GroupNorm(32, 512, eps=1e-06, affine=True)\n        (conv1): Conv2d(512, 512, kernel_size=(3, 3), stride=(1, 1), padding=(1, 1))\n        (norm2): GroupNorm(32, 512, eps=1e-06, affine=True)\n        (dropout): Dropout(p=0.0, inplace=False)\n        (conv2): Conv2d(512, 512, kernel_size=(3, 3), stride=(1, 1), padding=(1, 1))\n        (nonlinearity): SiLU()\n      )\n    )\n  )\n  (conv_norm_out): GroupNorm(32, 512, eps=1e-06, affine=True)\n  (conv_act): SiLU()\n  (conv_out): Conv2d(512, 8, kernel_size=(3, 3), stride=(1, 1), padding=(1, 1))\n)"
  },
  {
    "objectID": "posts/python/python-parallel-processing.html",
    "href": "posts/python/python-parallel-processing.html",
    "title": "Python Parellel Processing",
    "section": "",
    "text": "I came across this function called parallel in fastai, and it seems very interesting.\n\n\n\n\n\n\nA Simple Example\n\nfrom fastc
…
